profile92/Default/optimization_guide_prediction_model_downloads/c2b9409c-0d05-4cad-9f99-65b1c2c22440/model.tflite (tflite, 407748 bytes, 166 tensors)

context_transformer_0/bottleneck_input/norm/add f4 [32]
000000 15 68 54 3c 04 51 9a bc 33 3d 0d bd 64 0d a1 bd
       0.012964268 -0.01883746 -0.034482192 -0.07863882
000010 12 d5 3c 3d 77 0c b2 3d a4 c0 15 3d 1e d8 79 3d
       0.046101637 0.08693784 0.03656067 0.06099712
000020 12 87 bd 3d 12 cd 9f 3c 89 d2 ad bb 02 a0 ee bc
       0.09254278 0.019506965 -0.0053046388 -0.029129032
000030 1d f1 89 3d f5 32 36 bc 8d 0f b5 3c a8 5f 4b bd
       0.06735442 -0.011120548 0.022102142 -0.04965177
000040 0f 08 2a bc f9 ee f3 bc 5a 86 6f bd 1d fe a7 ba
       -0.010377898 -0.029777037 -0.058477737 -0.001281682
000050 df 02 ac 3d c0 3d c7 3c be 81 ed bb 3e cb 3c bd
       0.08398985 0.024321437 -0.0072481325 -0.046092264
000060 dd d6 eb 3c f5 0d b4 3d 1e f1 b4 3c b4 2e 88 3b
       0.028788978 0.087917246 0.02208763 0.004155958
000070 f4 5b 8b bd 16 81 dc bc ea 61 ec 3c de 62 27 bd
       -0.06804648 -0.026917022 0.028855283 -0.04086577

context_transformer_1/bottleneck_input/norm/add f4 [32]
000000 5a 41 a0 3c 0a e3 89 3d 79 df d5 bd c6 8c 9a bd
       0.019562412 0.067327574 -0.10443015 -0.07546382
000010 da 9c 1b 3e 64 0d 33 3d ef de 94 bc db 7c 70 be
       0.15196553 0.043713942 -0.01817271 -0.23485129
000020 2e 7f bd 3d 43 46 07 3d 58 67 33 3e 50 61 39 3d
       0.09252773 0.03302599 0.17519891 0.04525882
000030 d9 96 e2 bd e9 40 1b bd 54 4d 03 be 78 33 29 3e
       -0.11063928 -0.0379037 -0.12822467 0.1652354
000040 9c 5b 53 bd 6c a6 15 3d de ba 27 bd 80 2a e7 3d
       -0.051601037 0.036535665 -0.040949695 0.11287403
000050 2c 68 2d 3d 20 dd 5f bd 0c 64 ce 3d ff fe 6a be
       0.042335674 -0.05465424 0.10077676 -0.22948836
000060 90 32 95 3d 70 06 d2 3c 14 aa f7 bd 3f 38 9f 3c
       0.07285035 0.025637835 -0.12092987 0.019436
000070 c0 0c 21 3e 8e 5e 2c 3e 69 9d 6f 3d aa d5 62 be
       0.1572752 0.16832945 0.058499727 -0.22151819

mention_transformer_0/bottleneck_input/norm/add f4 [32]
000000 06 94 d7 3c 09 31 6c bd b3 31 45 be 82 7e 7d 3e
       0.0263157 -0.05766395 -0.1925724 0.2475529
000010 be 5b c7 bb 11 16 e3 bc ba d0 d3 3c d8 61 f3 b9
       -0.0060839346 -0.027720483 0.025856365 -0.0004642147
000020 54 92 01 3d ab e5 82 3d 15 2a c5 bd a2 e9 9d 3d
       0.03163369 0.06391462 -0.09627167 0.077105775
000030 62 16 c9 3d 01 ff e6 bd 8f 0b 93 3c ca b7 48 be
       0.09818722 -0.11279107 0.017949848 -0.1960136
000040 9a 63 35 bc 60 94 82 3d 68 af 39 3e fc b9 32 bd
       -0.01107111 0.063759565 0.18133318 -0.0436344
000050 41 f2 06 bd 60 db 62 be c8 55 cf 3d d7 a0 06 be
       -0.032945875 -0.22153997 0.10123783 -0.13147293
000060 bc ea 60 3c d4 c5 5d 3d d1 cb 27 3e 0c 52 ed bd
       0.01372784 0.05414374 0.16386344 -0.11587915
000070 09 7c 99 bb ed 39 3e 3e 7d 53 38 be 54 28 cb bd
       -0.0046839756 0.18576784 -0.18000598 -0.09919801

mention_transformer_1/bottleneck_input/norm/add f4 [32]
000000 91 e1 87 3e 9e e6 35 be eb 4e 50 bd 8b 10 0d 3e
       0.2653928 -0.17763755 -0.050856512 0.13775842
000010 07 16 31 be b8 17 d4 bd f6 25 17 be b4 44 8e 3d
       -0.17293559 -0.103560865 -0.14760575 0.06946698
000020 6c 0d f2 3d 78 50 1c be 1a b6 9f bd 03 5e 6f 3d
       0.11818966 -0.15265071 -0.07798405 0.058439266
000030 c0 03 a0 bd 1a cd 71 bd 60 d8 a2 bc a0 a8 e0 39
       -0.07813215 -0.05903349 -0.019878566 0.00042850245
000040 f1 12 c0 3d 9e 1a 0b be aa 8a 25 bc 7c 3e 90 3d
       0.09378613 -0.13584372 -0.010103861 0.07043168
000050 0e 98 91 be df ed 33 be d4 0e 6d be 2e ea c7 3b
       -0.2843632 -0.1757121 -0.23150188 0.0061009144
000060 bc 16 4f 3e 04 07 3c 3e f6 d8 4b bd 62 ad 89 3e
       0.20223516 0.18362051 -0.049767457 0.26890093
000070 25 42 73 3d 61 f5 d4 3d 71 a4 c0 3d 19 75 a4 3d
       0.059389252 0.10398365 0.09406365 0.08030147

context_transformer_0/attention/value/add;context_transformer_0/attention/value/einsum/Einsum;context_transformer_0/attention/value/add/ReadVariableOp/resource f4 [32]
000000 62 62 13 3c fd 0f 94 3c b1 bf 47 bc 48 1e b0 bb
       0.008995624 0.01807403 -0.012191699 -0.0053747036
000010 5d be c5 ba ab d1 45 bd c5 7b d4 bc 59 b9 34 bd
       -0.001508664 -0.048295658 -0.025937924 -0.044122074
000020 55 8f de bc 3e 99 17 bd 17 5a 85 3d 2e ba cd 3c
       -0.027167955 -0.037011378 0.06511324 0.025113191
000030 7e 50 8f bd 09 ff 10 bd 08 74 7d 3c ed 94 cd 3c
       -0.069977745 -0.03539947 0.015469559 0.025095427
000040 e8 60 86 3b 64 c6 e7 bc 43 e2 53 bc 4e 1b 8c bc
       0.0041009076 -0.028292842 -0.012932363 -0.017102864
000050 68 0f 19 3d 3d db 4c bd 27 6a d0 bc 61 fe a9 bc
       0.03736821 -0.05001377 -0.025441242 -0.02075118
000060 c1 ef c9 3d 5b 8e 8f 3d 89 8e 23 bc 71 00 93 3d
       0.098601826 0.07009574 -0.0099827135 0.071778186
000070 f3 1b 88 bd 18 55 9c 3d ed 5e a0 3d 53 fb 7b bd
       -0.06645956 0.07633418 0.07830606 -0.06151898

context_transformer_0/bottleneck_input/norm/mul f4 [32, 32]
000000 e3 4a a3 be ee 66 69 be 7f 89 84 be ce 45 8a 3b
       -0.31893072 -0.22793171 -0.2588615 0.004219747
000010 4a 5c 4f 3d 17 b7 27 3e 9f 98 03 3e d9 61 8c be
       0.050625123 0.16378437 0.12851189 -0.27418402
000020 50 61 6b 3e 85 e8 bf 3d ee d1 51 3e f5 a3 49 3e
       0.2298634 0.093705215 0.20490238 0.19691451
000030 f1 c6 69 be a6 d0 5b 3d 5e e3 0a 3e b5 1b be 3d
       -0.22829796 0.05366578 0.13563296 0.092826284
000040 50 17 66 be d3 31 1f bd cc b1 d1 3d 17 bd 17 3d
       -0.2246983 -0.038865875 0.1023899 0.037045565
000050 36 42 34 be 08 f5 a1 3e 55 9e 88 3e 33 27 b8 3d
       -0.17603382 0.31632257 0.26683298 0.08991852
000060 28 8b a6 be f9 6c fa bc 13 ce ff 3d 82 39 96 be
       -0.32528043 -0.03056954 0.124904774 -0.2934075
000070 ff c5 9c bd d2 f7 28 3b c0 b1 d3 be d7 08 87 be
       -0.07654952 0.0025782478 -0.4134655 -0.26373932
000080 8a 0a 89 ba f5 6e 97 be 09 dc cd bc 33 9a 42 3d
       -0.0010455411 -0.2957684 -0.025129335 0.047510337
000090 3c 7e 31 be a4 e8 e6 3d 57 8f f3 3e 00 ca 18 3e
       -0.17333311 0.112748414 0.47570297 0.14920807
0000a0 73 bf 8b 3e ac d9 5f be b5 a6 c9 bd 12 b5 92 be
       0.27294502 -0.21860379 -0.0984625 -0.2865377
0000b0 ba 61 4f 3e c5 5f f2 3e 75 93 fb 3d 8a 32 0b bd
       0.20252123 0.4733869 0.122839846 -0.033983745
0000c0 23 f8 28 3e 70 30 4d be f5 17 0d 3d 46 8a 51 3e
       0.16500907 -0.20038009 0.034446675 0.20462903
0000d0 09 96 4d 3e a2 b9 85 be f5 73 32 be f2 58 25 3e
       0.20076765 -0.2611819 -0.17427047 0.16147211
0000e0 f5 39 3c 3e 18 9a 51 3e 14 e4 3b bc 8c 89 ea 3d
       0.18381484 0.20468938 -0.011467952 0.11452016
0000f0 b7 6a 88 3e ec d1 71 3c 25 de 8b be 90 5a 32 be
       0.26643917 0.014759522 -0.2731792 -0.1741736
000100 a5 af 9f bb ae a6 60 3d 16 86 f5 b9 b1 9f cc 3a
       -0.0048732334 0.054846458 -0.00046829943 0.0015611557
000110 9d aa c0 3d 89 f5 f4 3d f0 8f ee 3d 68 a3 85 be
       0.09407542 0.119608946 0.11648548 -0.26101232
000120 57 c1 e8 3d c1 3a 7a 3e 59 83 3c be c2 69 86 3c
       0.11365002 0.24436475 -0.1840948 0.016407851
000130 b1 19 ee bd a3 50 69 bd fb ca d8 3d 97 cf 32 3a
       -0.11625994 -0.056961667 0.105855905 0.00068210944
000140 a9 1f 29 3d 28 7a 12 3e de c6 6a bd a8 c0 46 be
       0.04128996 0.14304411 -0.05731856 -0.1940943
000150 b1 ea 70 3d 98 0f 30 3e 0a 4f cf bd 7f bd 40 bc
       0.05881757 0.17193449 -0.101224974 -0.011763929
000160 f2 eb a4 bd b9 08 4e be d5 92 9b bd 38 ff 83 3d
       -0.080528155 -0.20120515 -0.07596365 0.064451635
000170 9a 1a 3e 3d e4 1b 6e be 98 99 e1 bd 98 5e 22 bd
       0.046412088 -0.23252827 -0.11015624 -0.039640993
000180 23 96 9c 3d b7 9c c5 3d 47 71 4c bd b6 c3 e0 3e
       0.07645824 0.096490316 -0.049912717 0.43899316
000190 07 7c 4c be f4 64 ff 3e e9 67 4b be f5 2b b7 bd
       -0.19969188 0.4988171 -0.19863857 -0.08943931
0001a0 30 6a 16 3e dd 03 4f be 42 80 ab be 34 3a 8b 3d
       0.14688945 -0.20216317 -0.3349629 0.06798211
0001b0 5b e8 27 3e 36 89 f8 3d c0 d4 20 be 8e 28 03 3e
       0.1639723 0.12135546 -0.15706158 0.12808439
0001c0 48 d2 98 bd 20 84 16 3e c8 b3 0d be 1b a2 d6 3e
       -0.07461983 0.14698839 -0.13838112 0.41920552
0001d0 5e 6e 26 3e 8b fc 0d 3e 4b da 22 3e 5b e8 09 be
       0.16253039 0.13865869 0.15903585 -0.13467543
0001e0 4c 51 b4 bd 24 97 dd bd 77 b3 dd 3e f0 81 8c 3e
       -0.08804569 -0.108198434 0.43300983 0.27442884
0001f0 7c 88 3d 3e 2e 09 d5 3d e4 f1 9b be 92 af 37 3c
       0.18509096 0.104021415 -0.30457985 0.011211293
000200 97 b4 7f 3c 1a 5c 80 3e 73 7f da bd 0f 48 a0 3e
       0.015607021 0.25070268 -0.1066884 0.31304976
000210 8f 18 d5 3e e9 48 db 3e 66 fb aa bd 3f c4 fc 3e
       0.416203 0.42829064 -0.08348732 0.49368474
000220 e2 15 1e be a6 88 f7 3e 39 69 87 bd fc 2a c2 3e
       -0.15438035 0.48346442 -0.066118665 0.3792342
000230 88 23 06 be 63 08 55 be 2d 9e 5d be 0f 7c 83 be
       -0.13099492 -0.2080398 -0.2164237 -0.25680587
000240 be 80 7d 3e 9c bc 0b 3e c9 be 32 be c9 c7 01 bd
       0.24756142 0.13646168 -0.17455591 -0.03168467
000250 95 fc 04 3e a0 ba 2c be c5 3c be bc 62 42 b4 3e
       0.12986977 -0.16868067 -0.023222337 0.35206896
000260 fa b2 c2 3e e0 6a b3 bc 58 e9 ee 3c f9 58 86 be
       0.38027173 -0.021901548 0.029164001 -0.26239756
000270 91 99 51 3d 5d ff 03 3e b3 27 0a 3f 76 36 29 3e
       0.051171843 0.12890382 0.53966826 0.16524681
000280 9d f6 c9 bc d5 cc 50 3e 63 fa 5a bd d8 1b 4e 3d
       -0.024653727 0.20390637 -0.053461444 0.050319523
000290 e0 ec 1d 3e d6 71 b4 bd bf 15 41 be 8a 27 f3 bd
       0.15422392 -0.08810775 -0.18855952 -0.11872776
0002a0 8b 3e b1 3d 89 5c 0a 3d 90 00 74 3d 53 e4 d9 3d
       0.08654507 0.033779655 0.05957085 0.106392525
0002b0 1a da 5c 3e dd 2c 1e 3e e8 6c 80 bd cc 0e 52 3d
       0.21567574 0.15446801 -0.06270772 0.051283643
0002c0 7e 05 2d be 1e 11 21 3d 3c 41 3b be a3 f0 1d bd
       -0.16896626 0.039322965 -0.18286604 -0.038559567
0002d0 73 bb ee 3d f8 65 f9 bd 06 5d a2 3e 52 dc bc 3e
       0.11656847 -0.12177652 0.31711596 0.3688684
0002e0 d0 ee 00 3e f7 d5 0b 3e 5d c3 cd bd 1d 2a c2 3d
       0.125911 0.1365584 -0.10047028 0.09480689
0002f0 88 d2 a2 bd cf 37 2a 3d f9 95 c9 3e 44 79 01 be
       -0.07950312 0.04155713 0.39372233 -0.12643915
000300 19 df 74 be 00 c7 a1 3e 5e 03 e3 3e 24 7d 43 be
       -0.2391323 0.31597137 0.44338506 -0.19090706
000310 1f 23 bb bd 38 ba df be 27 a2 12 be b1 40 9a 3d
       -0.09137558 -0.4369676 -0.14319669 0.0753187
000320 f2 c9 08 3e 72 e4 aa 3d 79 6d 1a 3c f4 a3 e4 3d
       0.13358286 0.08344354 0.009425514 0.11164084
000330 90 49 65 3d 10 e8 94 bd 82 80 87 3e 5b 80 23 3e
       0.055978358 -0.07270825 0.2646523 0.15966932
000340 55 ac f3 3e 8d 8c 41 bc 73 19 8c 3e 06 39 b4 3c
       0.47592416 -0.011813295 0.27363166 0.021999847
000350 f5 ea 06 3c e6 a4 03 bf 3c f4 d7 3e 52 45 50 3f
       0.008234729 -0.5142349 0.42178524 0.81355774
000360 9f d1 35 be a9 16 71 3d 34 2b 4e be 77 60 19 be
       -0.17755745 0.0588595 -0.20133668 -0.14978205
000370 28 e3 2c be 47 b0 ee 3e 4a f7 a2 bb 4f ed 24 3e
       -0.16883528 0.46618864 -0.004973327 0.16106151
000380 9f 34 11 be d9 43 57 3e 47 06 17 be 84 99 4a 3b
       -0.1418023 0.21021976 -0.14748488 0.0030914256
000390 09 27 39 3e 12 8f a3 be 76 83 2b 3e 3d 5e 53 bd
       0.18081297 -0.3194509 0.16749367 -0.051603545
0003a0 d2 c2 51 3e 66 c1 2b bd 7b a7 69 3e 4b cf 63 bc
       0.20484474 -0.041932486 0.22817795 -0.013904403
0003b0 e7 eb aa 3e 85 b0 81 3e 45 f6 53 3e 7e a9 4d be
       0.33383104 0.25329986 0.20699413 -0.20084187
0003c0 c3 d4 b5 3e 95 60 36 bb 77 7a 0f bd ba 7b 87 bc
       0.35513887 -0.0027828563 -0.0350289 -0.01653849
0003d0 6e 05 76 bd 4a 15 e3 be e0 32 05 be 03 86 47 3e
       -0.060063772 -0.4435218 -0.13007689 0.19484715
0003e0 15 c0 f8 be 45 d6 b2 bd 6c 46 3b 3c da 9a 33 be
       -0.48584047 -0.08732275 0.011430364 -0.1753954
0003f0 b4 48 b8 3d 24 81 c3 3d d2 c9 04 3e a1 62 6a 3d
       0.08998242 0.09546116 0.12967613 0.057222966

context_transformer_0/kq_shared_bottleneck/norm/mul;context_transformer_0/kq_shared_bottleneck/norm/add;context_transformer_0/attention/key/einsum/Einsum;context_transformer_0/attention/key/add;context_transformer_0/attention/value/einsum/Einsum;context_transformer_0/attention/key/add/ReadVariableOp/resource f4 [32]
000000 b1 a6 0d bd 67 eb fb bd 09 62 d0 bd 38 38 1a be
       -0.034582797 -0.12300759 -0.10174949 -0.15060508
000010 28 87 86 bd fa 43 10 3e 07 10 0a 3d 1a f2 cc 3b
       -0.06568748 0.14088431 0.03370669 0.0062544467
000020 92 a0 d8 bc 7d b3 e7 3d 65 a9 94 3d a8 4a 8d bd
       -0.026443753 0.113135315 0.07258872 -0.06899005
000030 91 10 c4 bd 2b 02 ef 3d cd ea 58 3d f3 79 ba 3d
       -0.09573472 0.116703354 0.0529583 0.09105291
000040 4d 59 72 3e 26 00 15 be fe b4 bf bd a0 ea 50 be
       0.23666878 -0.14550838 -0.093606934 -0.20402002
000050 58 98 89 3e c5 45 81 be e2 ce 8e 3e 41 11 49 be
       0.26874042 -0.25248542 0.27892214 -0.19635488
000060 ee e6 77 3d b7 70 df bc d9 73 3b 3e aa cd 5f 3d
       0.060522966 -0.027275426 0.18305911 0.054639496
000070 6d 4f 57 bd 53 b9 65 bc 39 00 13 be b1 de b8 3d
       -0.05256598 -0.0140212355 -0.14355554 0.0902685

context_transformer_0/kq_shared_bottleneck/norm/mul;context_transformer_0/kq_shared_bottleneck/norm/add;context_transformer_0/attention/key/einsum/Einsum;context_transformer_0/attention/key/add;context_transformer_0/attention/value/einsum/Einsum;context_transformer_0/attention/key/add/ReadVariableOp/resource1 f4 [32, 32]
000000 33 0e 35 3d 0f 82 06 3f a6 dd 2c 3e 4b e9 45 be
       0.044202995 0.52542204 0.16881427 -0.19327275
000010 b1 0c dc 3d 54 22 20 3e b2 0c 5f be b9 ac 4e 3e
       0.10744608 0.15638095 -0.21782187 0.20183076
000020 ac d7 ef be cf ae 4b be c3 2d 04 3d 0e 5f af 3d
       -0.46844232 -0.19890903 0.032270204 0.08563052
000030 42 98 9d be 63 44 80 3d 52 6f f6 bd b0 92 77 bd
       -0.30780226 0.06263044 -0.120329514 -0.060442626
000040 8b 32 8f 3d 69 51 96 bc 27 95 97 be c2 f4 20 3e
       0.06992062 -0.018349366 -0.29605982 0.15718368
000050 3a dd 79 be 1a 1d 41 3e db f2 3a bd b9 43 8e 3e
       -0.24400797 0.18858758 -0.04564176 0.27786043
000060 fe ed 20 bd 0c bf 11 3d ef 8c 82 be cc e0 22 3e
       -0.039289467 0.035582587 -0.2549815 0.15906066
000070 ca e7 e2 3d bb cc 4a 3e 0c 2f be 3e ad 29 87 3d
       0.110793665 0.19804661 0.3714527 0.06599746
000080 7b dd 0f 3c 6a b5 7a be c1 bb 86 3e e5 d1 ad be
       0.008780832 -0.24483266 0.2631512 -0.339492
000090 60 b8 6f 3e 56 14 79 3d b5 ba e0 bd 6a 2e f4 be
       0.23410177 0.06081041 -0.109731115 -0.4769166
0000a0 5f b6 7f 3e a0 51 9c be de 3c 01 bb 6f d9 1b be
       0.24971913 -0.30531025 -0.0019720118 -0.15219663
0000b0 6b 30 b3 bc 70 86 5e be 3e c5 e0 3e c3 4e 28 3e
       -0.021873673 -0.21730971 0.43900484 0.16436295
0000c0 fb df 0d bc 61 0a db 3e 7e dc de 3e 67 58 7d 3e
       -0.008659358 0.42781356 0.43527597 0.24740754
0000d0 03 ec d2 bd c6 dc 03 be df d1 81 be 1a 93 17 bd
       -0.10298922 -0.12877187 -0.2535543 -0.03700552
0000e0 ef 8f ef bd d4 97 93 be 9b 2e 30 3d 11 5e c4 3d
       -0.11697375 -0.28826773 0.043013196 0.09588254
0000f0 68 e3 e1 bd 54 2e fd be b6 cd 38 bd 05 80 45 be
       -0.110297024 -0.49449408 -0.045118056 -0.19287117
000100 ee a9 cf 3c de 4c 68 be dc 83 cf 3e 73 f8 9c be
       0.025349583 -0.22685573 0.40530288 -0.30658302
000110 b1 43 99 3e c9 14 bc 3d 46 39 20 be c9 d7 0c bf
       0.29934457 0.09183652 -0.15646848 -0.5501676
000120 f3 93 a5 3d 2a 1e 21 3c 38 f5 2c 3e a1 d5 ea ba
       0.0808486 0.009833852 0.16890419 -0.001791645
000130 75 ae 5f 3d 88 4e 19 be 0c 9c 25 3c 2e 74 a5 3e
       0.054609735 -0.14971364 0.010108005 0.323152
000140 34 38 13 3e a8 44 bf 3e 29 34 26 3f 70 c9 98 3e
       0.14376909 0.37357068 0.6492334 0.29841185
000150 8d 28 aa 3d 64 d4 8e be b6 4a a4 be 21 85 25 be
       0.08308516 -0.27896416 -0.3208825 -0.16164066
000160 de e6 64 bd 27 3a b0 be e1 c7 96 3c 42 1b 65 3e
       -0.055884235 -0.34419367 0.018405857 0.2237368
000170 23 4b e6 bd ac b7 d4 be ca 7f 83 3d b0 e7 79 3e
       -0.112448 -0.4154638 0.06420858 0.24404788
000180 9d e9 2d 3c 42 90 03 3c 1a ef ca be b5 08 4c be
       0.01061478 0.008029999 -0.39635545 -0.19925196
000190 2e 8f f7 3e 49 33 d0 3e b2 f5 84 bd 84 2a 96 be
       0.48351425 0.40664127 -0.06492175 -0.29329312
0001a0 92 b5 1e bd 1c 75 36 3e ff b0 b7 3d 18 9d 01 3d
       -0.038747378 0.17818111 0.08969306 0.031643957
0001b0 b0 03 c1 bd 0e 85 59 3e 5d 76 59 3e 00 46 cf bc
       -0.094245315 0.21242163 0.21236558 -0.025301933
0001c0 36 6f 6e 3c 48 72 b6 be b8 4e 2f bd 01 93 d1 3e
       0.014552882 -0.35634065 -0.04279968 0.40932468
0001d0 4f 7e 85 be ce c8 04 bd a1 d3 68 be fc ec 23 3e
       -0.26072928 -0.032418065 -0.2273698 0.16008371
0001e0 c2 b5 6b be e0 f5 c8 be 49 0b a5 bd fc d6 18 3d
       -0.23018554 -0.39250088 -0.08058793 0.0373144
0001f0 26 33 b9 3d 6f 87 4c bf 7f 44 90 be 35 0c da bd
       0.09042959 -0.79894155 -0.28177258 -0.106468596
000200 b9 df 0a 3d b7 f4 b7 be 91 d8 4b 3d 79 b3 81 3c
       0.033904765 -0.3592889 0.04976708 0.01583265
000210 49 65 e4 bd b4 44 53 be 2f 3b 18 3e 6b b9 60 be
       -0.11152131 -0.20631677 0.14866327 -0.21945731
000220 36 0a 08 3f 09 ec 73 bd 73 d1 aa bd 19 d2 8b bd
       0.5314058 -0.059551273 -0.083407305 -0.06827182
000230 93 3f 43 3e d9 41 8e bd 7e 38 61 3d 94 83 42 bc
       0.1906722 -0.06946153 0.054985516 -0.011872191
000240 be 2f b2 3d 6e 44 5e 3e 88 cd 15 3e 96 81 bc bd
       0.08700512 0.21705791 0.14629185 -0.09204404
000250 6a ff 2b 3e 1e 16 64 be 78 9a 21 3d 5a d2 5d be
       0.16796651 -0.22274062 0.039453954 -0.21662274
000260 61 ba e3 3d 09 37 40 bd 25 7f 85 3e 52 14 0a be
       0.11119533 -0.046927486 0.26073566 -0.13484314
000270 96 e7 0b be ba 01 62 be e0 dd 8b be 0c 00 86 bd
       -0.13662562 -0.22070971 -0.27317715 -0.06542978
000280 b9 44 df 3c 28 4c 39 3e ba d9 04 3d 30 0d 98 3e
       0.02725445 0.18095458 0.032434203 0.2969756
000290 99 25 c9 be 5c c1 40 be 50 89 10 3e e3 9a e1 3e
       -0.39286497 -0.18823761 0.1411488 0.44063482
0002a0 33 ad 2b be c2 20 44 3d 24 b8 7d bd 41 9b ca 3d
       -0.16765289 0.047882803 -0.06194319 0.098928936
0002b0 2f fa bf 3c a3 2e 57 3d 32 c9 b4 be 08 1e f0 bd
       0.023434727 0.05253471 -0.3530975 -0.11724478
0002c0 dd 84 b8 3c 49 bd aa bd 99 97 a2 be 42 34 b0 be
       0.022524292 -0.083368845 -0.31756285 -0.3441487
0002d0 13 91 03 3e 6a c9 01 3e 70 56 80 3e 75 0b 65 3c
       0.1284831 0.1267449 0.25065947 0.013979782
0002e0 55 2e 26 3e 03 fe cc 3e af 12 06 3d 7c 5f a0 bd
       0.16228612 0.40037546 0.03273266 -0.07830712
0002f0 93 7b 36 3d 64 c8 2f 3f 1b 35 76 3e bc 68 14 3e
       0.044551443 0.68665147 0.24043696 0.14493078
000300 9b 25 25 bd a8 e6 d5 3e da 6b 98 3d c2 9f 94 bd
       -0.040319066 0.4177754 0.07442446 -0.07257034
000310 95 d3 f0 3d 3a fd 40 3e d9 c2 2b be e0 6c 53 3e
       0.11759106 0.18846598 -0.16773547 0.20647001
000320 65 76 07 bf ed 1b 52 3c 5c 65 be 3d 05 ce a6 3d
       -0.5291503 0.012824041 0.092966765 0.08144764
000330 d0 7f 5a be 4e af 55 3d 69 de cb bd 97 c2 35 bc
       -0.21337819 0.052169137 -0.09954531 -0.011093757
000340 68 4e d1 bc 86 ab 0d be 64 39 1e be 2b bc 10 3e
       -0.025550082 -0.13834962 -0.1545158 0.1413428
000350 cc 6d 40 be 4b 88 46 3e 4f a9 54 bd 2d 54 49 3e
       -0.18791884 0.19387929 -0.051919278 0.19661017
000360 93 c1 c4 bd be 12 4b bc 2d 1a 87 be b5 a4 1e 3e
       -0.09607234 -0.012394605 -0.26387158 0.15492518
000370 97 19 34 3e f0 b9 62 3e 18 fd a0 3e 2d 20 26 3e
       0.17587887 0.22141242 0.31443095 0.16223212
000380 0c 4c d3 ba 2f 77 e1 3e a1 36 46 bd 90 4c a2 bd
       -0.0016120686 0.44036242 -0.048391942 -0.079247594
000390 c0 28 91 3d e6 18 84 3e 3c 82 2f be 5e 0a 4f 3e
       0.070878506 0.25800246 -0.17139524 0.20218799
0003a0 9b 0a 10 bf d4 50 a4 3d d2 03 d2 3d 69 30 2c 3e
       -0.5626618 0.08023229 0.10254635 0.16815342
0003b0 30 9b 49 be ec 81 4d 3e 81 2a 5c be 8c 98 36 bd
       -0.19688106 0.20069093 -0.21500589 -0.044579074
0003c0 21 06 bb 3d 23 16 a2 be 5e 3f 77 be f3 24 f5 3d
       0.09132028 -0.31657514 -0.24145266 0.11969938
0003d0 d9 a3 00 be c6 3e 22 3e 83 92 43 bb 09 24 6a 3e
       -0.12562503 0.15844259 -0.0029841966 0.22865309
0003e0 17 c4 4e bd 06 7e 09 3d 98 c4 4b be a7 6e f0 3d
       -0.050479975 0.03356745 -0.19899213 0.11739855
0003f0 56 8b 1a 3e 8e d5 2b 3e 77 14 81 3e 2d 40 56 3e
       0.15092215 0.16780683 0.25210926 0.20922919

context_transformer_0/kq_shared_bottleneck/norm/mul;context_transformer_0/kq_shared_bottleneck/norm/add;context_transformer_0/attention/query/einsum/Einsum;context_transformer_0/attention/query/add;context_transformer_0/attention/value/einsum/Einsum;context_transformer_0/attention/query/add/ReadVariableOp/resource;context_transformer_0/attention/Mul;context_transformer_0/attention/Mul/y f4 [32]
000000 49 71 3f 3e 6c d3 24 3b 76 05 1e bc 47 c8 10 3e
       0.18695559 0.0025150431 -0.009644857 0.141389
000010 b2 29 2f be 47 52 5f bd fa e1 34 3e 22 dd 30 3e
       -0.17105749 -0.054521825 0.17664328 0.17271855
000020 a9 29 4e be da dd 36 3e e1 b3 f7 bb 1c c6 4e be
       -0.2013308 0.17858067 -0.007559285 -0.2019276
000030 02 34 f9 bd c7 28 be 3d f2 d2 ec bd 9e 0c 01 be
       -0.12168123 0.092851214 -0.11563672 -0.1260247
000040 23 7a 32 3e 3d bc 36 bd 28 f6 16 3e a0 48 f0 bd
       0.17429404 -0.04461311 0.14742339 -0.11732602
000050 89 d5 b4 bc 73 96 f1 bd df 00 9b bd a3 0b 8e bd
       -0.022074478 -0.11796274 -0.075685255 -0.06935813
000060 4e 97 83 3d 7d 4b a9 bd fa 9b 36 3c c1 4e 40 3d
       0.064253435 -0.08266351 0.011145586 0.046950106
000070 09 cc 8a bd a6 76 cf 3d c4 eb cf 3c b8 2e 23 3d
       -0.06777198 0.10130052 0.025380976 0.039839476

context_transformer_0/kq_shared_bottleneck/norm/mul;context_transformer_0/kq_shared_bottleneck/norm/add;context_transformer_0/attention/query/einsum/Einsum;context_transformer_0/attention/query/add;context_transformer_0/attention/value/einsum/Einsum;context_transformer_0/attention/query/add/ReadVariableOp/resource;context_transformer_0/attention/Mul;context_transformer_0/attention/Mul/y1 f4 [32, 32]
000000 a6 a7 62 bc ac 87 bf bc b1 67 2b bc 3f 94 d6 3c
       -0.013833916 -0.023380123 -0.010461734 0.026193736
000010 fa 5a d9 bb 30 d9 ac 3c 61 15 ac 3c 80 d2 fc 3d
       -0.0066331597 0.021099657 0.021006288 0.12344837
000020 74 89 d2 3c ae 25 c0 bb 3b 7e e6 bc e8 ef dc bc
       0.025700308 -0.005863867 -0.028136363 -0.026969865
000030 bb 71 14 3d fb f4 5a bc e5 c9 71 bd 8e af ae 3c
       0.036241274 -0.013364072 -0.059030432 0.021323945
000040 b0 99 6d 3d b7 c9 f3 3c 28 bd a6 bd 55 1d 24 bc
       0.058007896 0.029759271 -0.081415474 -0.010016759
000050 e0 fb 37 3d 9d c2 31 bd 65 98 3b bc d4 84 28 bc
       0.04491794 -0.04339849 -0.011449908 -0.010285575
000060 63 73 7b 3c 4a b2 d0 3c 4b c5 06 bd e5 3a 6e 3b
       0.015347335 0.02547564 -0.032902997 0.0036351022
000070 3a 7d 0f 3d d4 49 21 3e 5c 87 a2 3c 6c 82 87 3d
       0.035031535 0.1575082 0.019839935 0.06616673
000080 56 95 00 be f6 28 4a bd 70 b2 cf 3d da b5 c7 3c
       -0.12556967 -0.04935547 0.10141456 0.024378706
000090 f0 8f 8c bc c6 93 3f be c4 80 95 bb 7c 1f de bd
       -0.017158478 -0.18708715 -0.004562469 -0.10845849
0000a0 57 ed e9 3d 44 ee d5 bd 4b 8a f1 bc 50 4f e4 bc
       0.11422222 -0.10445836 -0.029484889 -0.02786985
0000b0 11 ab bd 3c fc e1 e1 bd c5 1b e7 3d 9b f6 94 3d
       0.02315286 -0.11029431 0.112845935 0.07273599
0000c0 5f 8b 82 3c 7a 6d 0b 3e 3b a0 51 3e 10 1e 49 bd
       0.015935598 0.1361598 0.2047128 -0.049100935
0000d0 39 e3 42 3a ea c6 07 3c 2e bd 0d 3d 2c 74 1e bb
       0.00074343715 0.008287171 0.034604244 -0.002417813
0000e0 9d d2 48 bd f5 ea 2e bd e7 1c 92 bd 05 76 8b 3c
       -0.04902898 -0.04270454 -0.07134419 0.01702405
0000f0 85 53 31 3c 55 40 7f be 34 4e a2 3d 5b 4c 8f bc
       0.010823135 -0.24926884 0.07925072 -0.017492464
000100 76 7e 1d bd 7e 9f 78 bc 6f a0 64 3d 56 99 db 3c
       -0.03845068 -0.015174745 0.055817064 0.026806515
000110 94 6b 24 bd 4c 76 01 be ff 2a af bd 08 0a 3e be
       -0.040141657 -0.12642783 -0.08553123 -0.18558514
000120 b1 04 b3 3d d7 e7 26 bd 78 07 16 3d 57 70 37 bc
       0.08741129 -0.040748443 0.036628217 -0.0111962175
000130 f8 29 46 3d de 5f d2 bd a2 57 6d 3b dc 5d f0 3d
       0.04837987 -0.102721915 0.0036215563 0.11736652
000140 69 37 3e 3e 77 aa 04 3e 5c 68 81 3e 34 f6 9f bc
       0.18575825 0.12955652 0.25274932 -0.019526578
000150 e4 1e 50 3d 47 02 e3 bd 75 a7 55 3d 3d 0e 71 bd
       0.05081071 -0.11084419 0.052161653 -0.05885147
000160 fc 0d 90 bd ec 9f fc bc bf a8 be bd 51 50 bc 3d
       -0.07033917 -0.030837975 -0.093095295 0.09195007
000170 92 c8 18 3d 37 10 63 be eb 97 09 3d b5 d0 27 3e
       0.037300654 -0.22174154 0.033592146 0.16388209
000180 c3 2e b9 bd b1 3e 69 bd 36 15 c2 bd 47 8b 40 3b
       -0.09042122 -0.056944553 -0.09476702 0.002937989
000190 eb f3 8d bc 94 a0 12 3c 56 54 bb 3c 83 76 da 3d
       -0.017328223 0.008949418 0.022867363 0.106671356
0001a0 c3 f2 4d 3d d8 40 fc 3d ea 30 da 3d 05 64 24 be
       0.050280344 0.123170555 0.10653861 -0.1605378
0001b0 20 f6 74 3d 7d cc f4 bd c7 62 0c 3d e5 45 85 3d
       0.059805036 -0.119530655 0.03427389 0.06507472
0001c0 67 f9 a3 bd 04 70 9c bd 66 c4 81 3d 51 b9 8b bc
       -0.08006554 -0.07638553 0.06336288 -0.01705614
0001d0 5b 69 3d 3c 0f e1 fd 3b ec 1b 3b bd 38 dd 15 bc
       0.011560763 0.0077477763 -0.045680925 -0.009146981
0001e0 cd 2b b2 bd a1 45 89 bd 0b 7f 09 be a6 b2 55 3d
       -0.086997606 -0.06702734 -0.1342737 0.052172326
0001f0 8a ca fe 3d 0b 0d a4 be 0c 58 8c bc 44 53 69 3c
       0.12440975 -0.320412 -0.017131828 0.0142410435
000200 58 dc 83 3c 1e 58 7c 3d 03 f3 b2 3d 5f 1c bd bc
       0.016096279 0.061607473 0.08737757 -0.023084817
000210 a8 ff 0e 3a 84 75 9d bd 0e 59 eb bc de b2 e2 bd
       0.0005454966 -0.0768843 -0.028728988 -0.110692725
000220 0e 45 a4 bb 55 81 8d bd 92 7e 87 3c 8f 29 07 3d
       -0.005013115 -0.06909434 0.016539846 0.032998618
000230 e1 fa d6 bc 3b 2f 87 ba 14 be 1c bc bc f6 29 bd
       -0.026242675 -0.0010313758 -0.0095668025 -0.04149507
000240 d6 32 b9 bc 60 19 16 3c 0f f0 75 3d 0d 81 ff bb
       -0.022607248 0.009161323 0.06004339 -0.0077973665
000250 bb 34 c2 bc 9b 20 07 3d ef e0 82 3c a5 db db 3c
       -0.023706784 0.03299008 0.015976397 0.026838133
000260 99 bd ce 3c e7 fd f1 bc 0f 9d ee 3c 8e 66 ae bc
       0.025236892 -0.029540015 0.029127626 -0.021289136
000270 61 cc 12 bd 47 bc 1c be b8 03 85 3c 5f 6b 92 bd
       -0.035839442 -0.15306197 0.016237125 -0.07149386
000280 fd 4c f9 3d d7 40 6a 3d f1 ed 11 bb 30 5f 97 bc
       0.121728875 0.057190742 -0.0022267068 -0.018478006
000290 b3 d5 27 3d 8f 6c d0 3d 6c 1e 8c bc 11 64 f7 3c
       0.040975284 0.10176956 -0.01710435 0.030199083
0002a0 de fd e1 bd bd 71 ec bc 40 82 19 bd 0f 50 97 3d
       -0.110347494 -0.028862828 -0.03747773 0.07388317
0002b0 bb 17 6c bd 74 ae df 3d 5b 6c b8 bd 25 cb 93 bd
       -0.05763982 0.10921946 -0.09005042 -0.07216481
0002c0 4f ae 85 3c 7b 8f cd bc 22 69 34 be e7 e6 c9 3c
       0.016318468 -0.02509283 -0.1761823 0.024646236
0002d0 a0 86 f4 bb 4d 97 96 3b 3b 90 80 bc 66 3c 74 3c
       -0.0074623376 0.004595673 -0.015693774 0.014906978
0002e0 16 3e 97 3d 74 d9 29 3d ff a4 d1 3d 34 92 1c bd
       0.07384889 0.041467145 0.10236549 -0.038225368
0002f0 f6 30 5e bd bc d4 a2 3e 80 78 e2 bc ca dc 18 bc
       -0.05424591 0.31802928 -0.02764535 -0.009329984
000300 b8 3b 3d bb 75 c9 35 bd 38 d8 56 bd e7 d2 21 3d
       -0.0028874706 -0.044381578 -0.052452296 0.039507773
000310 7e af 97 bb b4 84 91 3d f5 fa cd 3c cc 53 e3 3d
       -0.0046290746 0.07105389 0.02514408 0.11099967
000320 e9 84 e5 bb f7 54 20 3d d2 fa 8c bc 59 03 97 bc
       -0.0070043695 0.03914353 -0.017209444 -0.018434213
000330 84 a9 31 3d b8 dc 42 3b 55 11 bb bc b9 40 34 3d
       0.043374553 0.002973361 -0.022835413 0.044007037
000340 b7 4b 8e 3d 83 a7 18 bb 66 72 87 bd 58 b9 a3 ba
       0.06948035 -0.0023293204 -0.06613617 -0.001249115
000350 a9 e7 14 3d 2f b3 2f bd 1f 79 cb 3b 57 f7 d0 bc
       0.03635374 -0.042895492 0.006209507 -0.025508566
000360 58 26 cb bc b9 77 c6 3c eb bd 08 bd 71 aa 35 3c
       -0.024798557 0.02422701 -0.033384245 0.011088
000370 83 51 0b 3d 2c 3e 12 3e f1 65 9c bc fe 49 a7 3d
       0.034013283 0.14281529 -0.019091578 0.0816841
000380 57 6b b2 bb 85 6d 1b bd f2 15 8d bd 32 1c 83 3c
       -0.005444925 -0.037946243 -0.06888951 0.016004656
000390 95 3a 34 bc 7f 2f d1 3d 37 e8 16 3d 92 df 0d 3e
       -0.011000295 0.10214137 0.03684255 0.13854817
0003a0 d1 5d 78 bc 52 3f 91 3d 06 a3 d3 3c 4b a1 3c bd
       -0.015159086 0.070921555 0.025834572 -0.04605226
0003b0 3c d2 e0 3c f8 2a 42 bc f0 af 9a bd ea 30 bc 3c
       0.027443998 -0.011851065 -0.07553089 0.022972543
0003c0 8a 5c 5f 3d ed 51 f8 bc 11 20 d1 bd 3e e4 1c 3c
       0.05453161 -0.030312503 -0.10211194 0.009575902
0003d0 61 20 22 3d fd 92 69 bd 48 f2 b8 bc 97 08 87 bc
       0.03958166 -0.057024945 -0.022576466 -0.016483588
0003e0 47 7a ff bb c5 09 e5 3c e5 55 36 bd 17 1b 7e 3c
       -0.007796559 0.02795876 -0.04451551 0.015509388
0003f0 78 4c 6d 3d cd c2 1b 3e 48 64 84 bc 66 2d e2 3d
       0.057934254 0.1521103 -0.0161611 0.11043815

context_transformer_0/ffn_layer_0/intermediate_dense/einsum/Einsum;context_transformer_0/ffn_layer_0/intermediate_dense/Relu;context_transformer_0/ffn_layer_0/intermediate_dense/add f4 [32]
000000 fb da 5f be 19 7b a6 be b0 3a 89 be cb 17 fd be
       -0.21860878 -0.3251579 -0.26802588 -0.49432215
000010 d4 af a6 be af 56 23 bd 6d 89 11 be 67 c6 97 be
       -0.3255602 -0.03987759 -0.1421258 -0.29643556
000020 82 34 5b be a6 de b1 be c6 48 96 be 30 a8 1d be
       -0.21406749 -0.3474018 -0.29352397 -0.1539619
000030 be 02 38 be 01 6a cc be fb 10 82 3c 35 fd 48 be
       -0.17969796 -0.39924625 0.015877238 -0.19627841
000040 f3 5d 93 bc c8 cf 8e be 26 2f 59 be 66 bb 9c be
       -0.017989134 -0.278929 -0.21209392 -0.30611724
000050 c5 97 9b bd 29 31 ce bd 9a ee 27 be 0a 24 44 be
       -0.07597307 -0.1006797 -0.16399613 -0.19154373
000060 84 46 d4 be 1f 6c a2 be a6 f6 35 be 20 be 9f be
       -0.4146005 -0.31723115 -0.1776987 -0.3119974
000070 43 41 0e be ba 47 94 be c5 c8 87 be 49 ce 81 be
       -0.13892083 -0.28960973 -0.26520362 -0.25352696

context_transformer_0/attention/norm/mul;context_transformer_0/attention/norm/add;context_transformer_0/ffn_layer_0/intermediate_dense/einsum/Einsum;context_transformer_0/ffn_layer_0/intermediate_dense/Relu;context_transformer_0/ffn_layer_0/intermediate_dense/add f4 [32, 32]
000000 fc 86 4d 3e 35 d6 1f bc 27 0b b2 3e 7a df d7 3d
       0.20071024 -0.009755661 0.34774134 0.10540672
000010 6b 21 01 3d 91 c3 3d be f7 4c 52 3e 19 74 04 3e
       0.03152601 -0.18531634 0.20537172 0.12934913
000020 11 d5 c5 be c3 69 3c 3e 69 2a 90 3e ba ca 36 be
       -0.3863912 0.1839972 0.28157356 -0.17850772
000030 f0 8e 21 be 5f 37 38 bd f2 9d 83 3c de 31 8e be
       -0.15777183 -0.04497468 0.016066525 -0.2777242
000040 f8 5f 27 bb af 0d 8d bd f9 95 af 3d 16 6e 16 3e
       -0.002553938 -0.068873756 0.08573527 0.14690432
000050 a0 80 ce be e5 8e 86 be e2 6f 5b 3e ba ca 25 3d
       -0.40332508 -0.26280895 0.21429399 0.04047654
000060 b4 33 55 be 14 4e 05 3e ca 7f 9b be 94 75 c0 3d
       -0.20820504 0.13018066 -0.30370933 0.09397426
000070 8a b1 ad 3c 75 85 13 bd 5b dd d8 bd 33 91 1c bd
       0.021202821 -0.036015946 -0.10589095 -0.03822441
000080 95 7f c9 3d 38 93 fd 3e 0e 9d 43 bd db 65 a1 be
       0.098387875 0.49526381 -0.0477572 -0.31523022
000090 4a 05 e4 bd 48 1c 69 bd 7d 73 19 3e 3b ee 86 bd
       -0.11133821 -0.056911737 0.14985462 -0.065884076
0000a0 8f d4 c2 bd 60 1f 8b be fe 4c 8c 3d f9 61 35 3e
       -0.095131986 -0.27172375 0.068506226 0.17713155
0000b0 28 f7 b1 3d 10 3f 54 3c 72 da ba bd 54 d4 9f 3d
       0.086897194 0.012954488 -0.091236964 0.0780417
0000c0 58 3e 20 3e 29 cd 17 be 37 3b 3e 3d ec 01 84 3b
       0.15648782 -0.14824356 0.04644319 0.0040285494
0000d0 f7 aa 08 3e 38 9b a7 3e ee 2b b0 be ec 6c 10 be
       0.13346468 0.3273561 -0.34408516 -0.1410405
0000e0 d3 15 6f be a6 e0 51 be 1d d7 0b 3e 71 18 44 be
       -0.23348169 -0.20495853 0.13656278 -0.19149949
0000f0 c8 20 9b 3d 18 c4 86 3d 18 9c d3 3c 37 41 a8 bd
       0.07574612 0.06580371 0.025831267 -0.08215564
000100 a3 3c 72 bd 88 ab 99 3c 14 f5 72 3d e2 21 24 be
       -0.05913986 0.01875855 0.059315756 -0.1602855
000110 44 41 67 bd 56 23 ee bd b4 ab a5 3d d8 d3 39 3e
       -0.056458727 -0.116278335 0.080893904 0.18147218
000120 8c 8d b4 be 60 97 fb 3d 15 62 c4 3e c1 9b cf 3c
       -0.35264242 0.12284732 0.3835608 0.025342824
000130 d4 b0 a7 be 82 ac dd bd 0b 55 d2 bd 7b 71 2f 3e
       -0.32752097 -0.10823919 -0.10270127 0.17133133
000140 3f 31 e4 bd b5 a2 bd 3e 51 63 1e be 10 98 22 bd
       -0.111422054 0.37038198 -0.15467574 -0.0396958
000150 30 70 89 3d 77 5b d8 3e 09 3b c9 3d 57 6c 61 3d
       0.06710851 0.42257282 0.09825713 0.05503496
000160 38 27 eb 3d d8 3f 8c bd c0 1f 00 be 7e 58 03 bd
       0.1148209 -0.06848115 -0.12512112 -0.032066815
000170 b1 9d 26 3e 46 6a 07 3c 03 d6 fa 3d e8 66 c7 3e
       0.16271092 0.008265084 0.12247851 0.389457
000180 a9 d5 73 bd cc 96 b2 bd 59 53 41 3c 16 92 6f 3e
       -0.059529934 -0.087201685 0.011799657 0.23395571
000190 5a a7 43 3e 73 25 a2 bc 99 e8 14 3e 49 c4 81 be
       0.19106808 -0.019793248 0.14541854 -0.25345066
0001a0 02 5c 31 be f1 db f8 3d c3 84 8b 3e bf 78 45 3e
       -0.17320254 0.121513255 0.27249727 0.19284342
0001b0 dd 7f 2c bb 8f 17 77 bd 17 71 3e 3c ec b0 ef 3d
       -0.002632133 -0.0603252 0.011623642 0.11703667
0001c0 61 8d 36 3e 12 6c 90 3e 69 96 78 bd 89 75 9f be
       0.1782737 0.2820745 -0.060690317 -0.3114436
0001d0 0b 69 7a bd e8 8e 6b be b9 53 8e 3e 76 ca 71 3e
       -0.061135333 -0.23003733 0.2779825 0.23612389
0001e0 c4 29 9c be 76 10 33 3d 2b 67 8a 3e 4c 55 98 be
       -0.30500615 0.04371687 0.27031836 -0.29752576
0001f0 86 25 b3 3e 5f 24 09 3e 9d 73 15 3e fe 10 9d bc
       0.34989566 0.1339278 0.14594884 -0.019173142
000200 3c cf 67 be c1 1c 26 bc 67 08 6d be bb cb ca 3c
       -0.22637647 -0.010138691 -0.23147736 0.02475535
000210 5e ad 48 be 29 0d 27 3e fe a9 b6 3e 9c 58 53 be
       -0.19597384 0.16313614 0.3567657 -0.2063927
000220 dc 11 06 3d 3b 22 7c be 2a 5a 99 be 67 18 95 3b
       0.032731876 -0.24622433 -0.29951602 0.004550028
000230 9a b8 10 3e 7f 00 5a bd 73 ea bf bd cf a6 d0 be
       0.1413292 -0.05322313 -0.093708895 -0.40752265
000240 0b 38 b8 3d 29 8a 93 3e 03 74 06 be a3 f7 b4 bd
       0.08995064 0.28816345 -0.13130192 -0.088362955
000250 10 b1 ba bc 33 43 17 3f 3a 86 1e 3e 18 01 13 3d
       -0.022789508 0.5908691 0.15480891 0.035889715
000260 aa de 1e be 1c 0c 0a be 3a d5 3c 3d 3a d4 14 be
       -0.15514627 -0.13481182 0.046101786 -0.14534083
000270 7b b2 8a bd f3 93 6f bd 30 5d 34 3f 9f fe 8b 3e
       -0.06772324 -0.058490705 0.7045469 0.27342698
000280 c7 02 38 3e b2 59 89 3e 7d e7 9d be 9f 26 1b 3e
       0.1796981 0.26826245 -0.30840674 0.15151452
000290 4e 7c 7b 3e 23 46 63 be 72 ec 80 be d2 98 d5 bd
       0.24559137 -0.22194724 -0.25180393 -0.10429539
0002a0 12 47 d3 be 4e bd 6f bd 27 76 21 bc 72 cc 24 be
       -0.4126516 -0.058530144 -0.00985483 -0.16093615
0002b0 ff 69 4d 3e 4c 46 5e be cd e0 fd 3d 67 b8 a5 bd
       0.20059966 -0.21706504 0.12396393 -0.080918126
0002c0 b9 64 88 3c e3 50 27 3e 53 a6 3a 3b 2f 33 f6 bd
       0.01664959 0.1633945 0.0028480485 -0.12021481
0002d0 8b 9f 85 be 65 e3 90 be e8 24 a2 3d 8d 2c 2c 3e
       -0.26098284 -0.28298488 0.079171956 0.1681387
0002e0 bc 74 51 be d2 c0 49 3e ff 66 a7 3e fd 56 b0 3b
       -0.20454687 0.19702461 0.32695767 0.0053814636
0002f0 0e de 26 be aa 7a 27 3e 10 e9 07 3e 52 b0 0f 3d
       -0.16295645 0.16355386 0.132725 0.03508026
000300 4a 5c 14 3c 6e 7e bb 3b 01 de 89 3c 6e 2d 2e 3b
       0.009055207 0.0057218587 0.016829493 0.0026577371
000310 d4 67 98 bc 42 c4 64 bd 42 51 f4 3b 10 e5 75 bc
       -0.018604197 -0.05585123 0.0074559757 -0.015008226
000320 6a 28 4c bd 91 93 66 3b 99 a8 99 3c ab 06 e3 bc
       -0.04984323 0.0035183171 0.018757151 -0.02771314
000330 3e 0a b5 3c 1b e6 10 bd 75 5d 4a 3b 1f a4 8f 3c
       0.02209961 -0.035375696 0.0030878459 0.017534314
000340 86 93 ca 3c 3e 23 bf 3c 10 e0 a1 3c 99 98 ce 3c
       0.024728548 0.023332234 0.019760162 0.025219249
000350 2f 52 99 bc 36 ad 5e 3c 40 18 9a 3b dd 70 d8 bb
       -0.018715946 0.013591101 0.004702598 -0.006605251
000360 2b 57 43 bc f8 ee 69 bc ed a8 cb 3c 53 50 f4 3c
       -0.011922638 -0.014278166 0.024860824 0.029823458
000370 d4 26 2e bc b3 3f 8f 3c f3 86 7e b8 ac ae b2 3b
       -0.0106293745 0.017486429 -6.0684e-05 0.0054529514
000380 e9 21 82 3e 9c 3e a0 be c3 f3 29 3d d9 0a fe 3c
       0.25416496 -0.31297767 0.041492235 0.031011032
000390 89 8c 8a 3e b5 e7 f8 bc 68 01 4a 3d 7f 40 b7 be
       0.27060345 -0.030383924 0.049317747 -0.35791394
0003a0 b3 cc 8a be 9d 8f 7f 3d 0b d9 d5 3d ae 58 9d bc
       -0.27109298 0.06239282 0.10441788 -0.019207325
0003b0 3c d9 d7 be 2d 93 1e 3e b0 9b 09 bd b2 5b fe bd
       -0.42157924 0.1548583 -0.03359574 -0.12419833
0003c0 cc d8 1d be 87 b7 03 be 65 4e 80 bd 44 f9 f5 bc
       -0.15414733 -0.12862979 -0.062649526 -0.030026086
0003d0 7a 87 40 be 72 d0 ce bd 08 84 d2 bd cb fb 01 bd
       -0.1880168 -0.100983515 -0.10279089 -0.03173427
0003e0 d0 7b 4c 3e 24 0c f6 3d cf 9d 2e be e4 0f d5 bd
       0.19969106 0.120140344 -0.17052387 -0.104034215
0003f0 5a 4c 05 3e bc bf 45 be 62 e7 63 3d 21 75 b3 3e
       0.13017407 -0.19311422 0.055640586 0.350503

context_transformer_0/ffn_layer_1/intermediate_dense/einsum/Einsum;context_transformer_0/ffn_layer_1/intermediate_dense/Relu;context_transformer_0/ffn_layer_1/intermediate_dense/add f4 [32]
000000 91 9c 54 be 35 c9 77 be 4f 2b 4b be f6 d6 06 be
       -0.2076285 -0.24197848 -0.1984074 -0.13167939
000010 e7 58 10 be d0 13 24 be fa 5a e5 bd 9f 14 98 be
       -0.14096414 -0.16023183 -0.11198993 -0.29703233
000020 ab a1 a0 be 27 83 3c bd 90 0c 81 be 7d c0 28 3d
       -0.31373343 -0.046023514 -0.25204897 0.041199196
000030 1a 5d 38 be 3d 79 83 be 48 04 af 3a a1 c2 9e bd
       -0.18004265 -0.25678435 0.0013352716 -0.07751966
000040 0b 3a c2 be 87 73 9e be cb 0a 9c be 9b ef a9 be
       -0.37934908 -0.30947515 -0.30476984 -0.33190617
000050 6b 2f 3b bd 1c ae 57 3b ef 9d b0 bd 41 5c 6d be
       -0.04569952 0.0032910174 -0.086238734 -0.23179723
000060 0b 57 8e be de 03 a9 be 9e 4c 8c be a6 cb 53 be
       -0.27800784 -0.33010763 -0.27402204 -0.20683154
000070 2d 1e ec be b8 ee 01 bd 2c 4c 7d be 56 f2 9c bd
       -0.46116772 -0.0317218 -0.24736089 -0.076634094

context_transformer_0/ffn_layer_0/norm/mul;context_transformer_0/ffn_layer_0/norm/add;context_transformer_0/ffn_layer_1/intermediate_dense/einsum/Einsum;context_transformer_0/ffn_layer_1/intermediate_dense/Relu;context_transformer_0/ffn_layer_1/intermediate_dense/add f4 [32, 32]
000000 85 25 bb bd 76 31 2c bb 18 89 32 3b f7 47 07 3e
       -0.09138016 -0.0026274598 0.0027242359 0.13211046
000010 de 50 e5 3d 3c 13 0f 3d 3c 69 07 3e 8c f7 d3 bc
       0.11197065 0.034930453 0.13223737 -0.025874875
000020 bb 2c a6 3b 34 f8 f2 bd e3 bd 41 3e fb aa c4 bc
       0.0050712503 -0.11863747 0.18920092 -0.024007311
000030 c5 ee 08 be a0 75 5c 3c d0 63 4a be be 59 50 3e
       -0.13372333 0.013455778 -0.19764638 0.20346734
000040 4d c2 b0 bd a8 d5 0b 3c b6 38 16 3e 7d 01 9a bb
       -0.0863081 0.008534826 0.14670071 -0.0046998844
000050 30 54 12 be 28 e9 09 be 43 d3 fb 3b 22 c7 bd bd
       -0.14289927 -0.13467848 0.0076850965 -0.09266497
000060 b6 2f 5b bc b7 e3 3c bb 3d 5e ac 3d c9 6f c6 3d
       -0.013378074 -0.0028822252 0.08416412 0.0968929
000070 19 a4 0a 3e 33 3c 4d 3e 8b 3a bc bd bf 3b df 3d
       0.13539161 0.20042495 -0.09190854 0.109000675
000080 34 f3 02 3e 45 bf 00 bd 0e bc 83 3d 63 cf 0d bc
       0.12788087 -0.03143241 0.06432353 -0.008655402
000090 07 b3 5b 3e 58 be 56 3d c3 64 bf be f4 1c 04 bd
       0.21455012 0.05242762 -0.37381563 -0.032254174
0000a0 75 63 7b 3c c1 cd 52 3e fb 75 8d 3d 6f 44 27 be
       0.015343537 0.20586301 0.069072686 -0.16334699
0000b0 d6 28 02 3e 6d 93 63 ba 3b 65 29 be 9b bd ae 3d
       0.1271089 -0.0008681331 -0.16542523 0.08532258
0000c0 89 aa 8a bd b3 e2 38 be 72 0a 79 3e 39 4d 59 3e
       -0.06770808 -0.18055229 0.24320391 0.21220864
0000d0 ff cc 7e be 57 6e 72 3e fd 01 35 3c e1 57 b9 bd
       -0.24882887 0.23674904 0.011047837 -0.09049965
0000e0 7f 7a b0 bd 69 7a 4a be e3 72 b1 bc c0 3a 5a 3d
       -0.08617114 -0.19773258 -0.021661228 0.053278685
0000f0 c9 91 89 3e d9 eb 8b 3e 53 7e 09 bd 9f be 15 be
       0.26869038 0.27328375 -0.033567738 -0.14623497
000100 e3 5a cb bd 6e df f4 bb 5a a7 83 3d 65 1b 20 3e
       -0.09929445 -0.007472924 0.06428404 0.1563545
000110 20 38 8a 3d 05 3e 25 be 83 03 2a bf 78 54 fd bd
       0.06748986 -0.1613694 -0.6641161 -0.12369627
000120 f3 52 9e bd 7d fe 80 3e e0 23 f9 bb e5 36 3a bd
       -0.07730665 0.2519416 -0.0076031536 -0.045462508
000130 b9 68 d8 bd 17 8c c0 bd 60 ab 80 3e 6c 63 57 3d
       -0.10566849 -0.0940172 0.2513075 0.05258505
000140 58 c0 6a be 46 cd 62 bd 43 39 43 bd 68 a1 96 3d
       -0.22924936 -0.055371545 -0.04766203 0.073550045
000150 f0 1c 09 be ce cf 0c 3d f1 53 0a be 76 ac bd bd
       -0.13389945 0.034377865 -0.13508584 -0.0926141
000160 ce d3 52 bd b1 bd 34 be d6 b9 ac bd 8f d8 1a 3e
       -0.051471524 -0.17650487 -0.08433883 0.15121673
000170 3f 0e 34 be 6a c1 2c bb 6f d4 e9 bd a7 42 58 be
       -0.1758356 -0.00263604 -0.114174716 -0.21119176
000180 04 43 13 be a4 a3 12 be 66 1c 9f 3d ec 32 0a bd
       -0.14381033 -0.14320236 0.077690884 -0.03373997
000190 2f b6 16 be 75 a7 6a bd b4 b1 26 3e ec a3 9d 3b
       -0.14717935 -0.057288606 0.16278726 0.004810801
0001a0 73 11 a0 be 9c d3 b6 bd 0c 33 bc bd af f5 ab 3d
       -0.31263313 -0.0892708 -0.09189424 0.0839647
0001b0 2e ae ce 3d 11 2b 57 3d b4 a1 ad bd 98 87 80 3a
       0.10091816 0.052531306 -0.08478108 0.0009806035
0001c0 0e cf f3 bd 21 58 1a 3d d4 91 0c 3c 56 74 7b 3d
       -0.11904727 0.037681703 0.00857969 0.061390243
0001d0 ad ae 73 be b8 20 27 bd fd f5 d4 bc 23 a3 22 be
       -0.23797102 -0.040802687 -0.025996203 -0.15882544
0001e0 75 72 19 3d 62 18 e6 3c 4c 8c a9 3d 8f af 04 3e
       0.03746267 0.028087799 0.08278713 0.12957595
0001f0 dc 7f 81 3e 8f 7b 74 3d 6d 08 39 3e 65 4d 38 be
       0.2529286 0.059688147 0.1806962 -0.17998274
000200 46 ef ce be d7 9d 1d be 71 5b 6e 3b 24 65 3a 3e
       -0.40416926 -0.15392242 0.0036370421 0.18202645
000210 79 5c a0 3d 31 a4 3f 3e 28 8d bd bd 9f 4f 51 bc
       0.07830138 0.18714978 -0.09255439 -0.012775331
000220 9e a0 c9 be a7 35 5c 3e 16 15 be 3d b9 1f 99 bc
       -0.39380354 0.21504842 0.092813656 -0.018691884
000230 06 5b bd 3d f8 3d 3e 3d c4 c4 f6 3d 95 6d 8f bc
       0.09245877 0.046445817 0.12049249 -0.017508307
000240 58 70 33 3e d8 bc f5 3d 2e 49 ee 3e 9f b7 5a be
       0.17523324 0.1199891 0.46540207 -0.21359108
000250 39 25 4f 3e 88 35 53 3c 1a ac d8 bd 48 e1 e7 bd
       0.20229043 0.012891181 -0.10579701 -0.11322266
000260 1b 8a 64 be 81 2b 8e bd b8 24 50 be c0 14 df bc
       -0.22318308 -0.069418915 -0.20326507 -0.027231574
000270 de 5c 84 be bb 71 06 3e b1 9e 26 3e 5d 34 4b be
       -0.25852102 0.13129322 0.16271473 -0.19844194
000280 e6 e0 11 be 3a 96 a9 bb 66 82 e8 bd 82 7a 19 bd
       -0.14245948 -0.005175379 -0.113529965 -0.03747035
000290 e7 37 b5 bd 28 12 fa bd b7 8e 9d 3d 50 37 ab be
       -0.08848553 -0.12210494 0.07693236 -0.33440638
0002a0 37 93 a4 3c 0e 56 cf 3c 91 ee 4b be b1 f2 c3 3e
       0.020089729 0.025309589 -0.19915225 0.38271096
0002b0 06 32 7f bc 77 e8 95 3d 26 0a 8e be 68 d2 e9 bd
       -0.015575891 0.0731973 -0.27742118 -0.11417085
0002c0 19 85 29 be 31 2c 5a 3e 8f 7f 02 3e 54 bf 43 bc
       -0.16554679 0.2130592 0.12743972 -0.011947472
0002d0 58 86 71 3e 1d 6f 48 be 7e 62 7a 3c 7f b6 8e bd
       0.23586404 -0.19573636 0.015282271 -0.06968402
0002e0 20 f5 4f bd 31 26 b6 be 16 20 a3 be a2 14 08 be
       -0.05077088 -0.35576013 -0.31860417 -0.13289121
0002f0 0d 22 9a 3d de a0 08 bd 03 78 1d 3e 32 8d 07 3e
       0.07526026 -0.03335654 0.15377812 0.13237455
000300 5e c6 36 3e 85 5d 07 3e e8 71 af 3e 89 43 14 bd
       0.17849109 0.13219269 0.3426659 -0.03619722
000310 e1 62 b7 be fc 54 e5 3d e2 52 bc 3d 86 7b 14 be
       -0.35817626 0.1119785 0.09195496 -0.14500245
000320 09 53 8b bd a9 75 71 3d 5b b3 44 3e cb dd 6b be
       -0.06802947 0.0589501 0.19209044 -0.23033826
000330 85 02 bc 3b 4d 76 84 be 64 cc 61 3e f5 02 04 3e
       0.005737605 -0.25871506 0.22050625 0.12891753
000340 bb 16 52 3e 7a 74 15 bd 0b de 45 3e b7 a5 4f 3e
       0.20516483 -0.036488034 0.19322984 0.20278059
000350 ff c7 4b be c3 82 2a bd 0c a0 44 bc cb 7c 0d be
       -0.19900511 -0.04162861 -0.012001049 -0.13817136
000360 50 cf ba bc 90 56 c3 3e 88 3d 1a be d2 f4 76 3e
       -0.022803932 0.3815198 -0.15062535 0.24116829
000370 75 62 1d 3e c2 82 17 be 9c 80 c2 3c 9a be 51 3d
       0.1536959 -0.14795974 0.023742966 0.051207162
000380 24 a8 08 bf 16 04 ed 3c 61 0e 12 bd 3a ef 90 3d
       -0.5338156 0.028932612 -0.035658244 0.07076879
000390 33 96 9e be 3e dd f9 3d f3 1b 8e be ac 36 0e 3e
       -0.30973968 0.12200402 -0.277557 0.13888043
0003a0 2d 6e 8d be 2f 49 e5 3d f0 15 ad 3d 9c 13 1e be
       -0.2762312 0.11195599 0.0845145 -0.15437168
0003b0 21 91 a7 3e 62 ec 34 3d 6f 40 86 3d 26 15 3c 3d
       0.32727912 0.044170745 0.065552585 0.045918606
0003c0 c4 ee 82 3d d3 ba 9c 3e 60 0c 1a 3e 00 24 9b bc
       0.06393197 0.30611286 0.15043783 -0.018938065
0003d0 f8 46 15 3e e8 47 94 3e 6c 7a 51 be 04 fc 22 be
       0.14577854 0.2896111 -0.20456856 -0.15916449
0003e0 fa eb f4 3d e5 ff 50 3e 88 84 d4 bc 13 67 0a be
       0.119590715 0.20410116 -0.025942102 -0.13515882
0003f0 51 27 e3 3d 68 22 89 3e a0 2c d7 3d 47 39 64 be
       0.110914834 0.26784062 0.105065584 -0.22287475

context_transformer_0/ffn_layer_2/intermediate_dense/einsum/Einsum;context_transformer_0/ffn_layer_2/intermediate_dense/Relu;context_transformer_0/ffn_layer_2/intermediate_dense/add f4 [32]
000000 e3 52 91 be 06 ae f5 bd 90 6f 87 be fb db 9a be
       -0.2838355 -0.11996083 -0.26452303 -0.30245957
000010 85 68 17 be ed ce 5a bd 3e 7e 8a be 4e 69 f6 bd
       -0.14785965 -0.053419996 -0.2704944 -0.12031804
000020 5b ab 88 be e5 59 a8 be 2d ea 28 be 80 ff 15 be
       -0.26693234 -0.32881084 -0.16495581 -0.14648247
000030 33 2a 22 be b5 c3 ee bd fc 93 9b be 60 ff 66 be
       -0.1583641 -0.11658422 -0.3038634 -0.22558355
000040 a5 38 61 3d 55 c2 53 be d1 44 bd bd 32 ad e9 bd
       0.05498566 -0.206796 -0.09241641 -0.114099875
000050 5f 79 64 be b6 42 01 be 43 09 0f be e4 09 c7 be
       -0.22311924 -0.12623104 -0.13968377 -0.38874733
000060 9c 5e 9f be a1 ae 35 be e7 52 59 be 69 ba d1 bd
       -0.3112687 -0.17742397 -0.21223031 -0.10240633
000070 0b c2 1b be 5b c9 1d be 98 b8 a5 bd 1f 71 d6 bd
       -0.1521074 -0.15408842 -0.08091849 -0.10470795
